{"Layers": [{
  "Name": "/feature_layers.0/Conv + /feature_layers.2/Relu",
  "LayerType": "CaskConvolution",
  "Inputs": [
  {
    "Name": "input",
    "Location": "Device",
    "Dimensions": [1,3,32,32],
    "Format/Datatype": "Row major linear FP32"
  }],
  "Outputs": [
  {
    "Name": "/feature_layers.2/Relu_output_0",
    "Location": "Device",
    "Dimensions": [1,128,32,32],
    "Format/Datatype": "Row major linear FP32"
  }],
  "ParameterType": "Convolution",
  "Kernel": [3,3],
  "PaddingMode": "kEXPLICIT_ROUND_DOWN",
  "PrePadding": [1,1],
  "PostPadding": [1,1],
  "Stride": [1,1],
  "Dilation": [1,1],
  "OutMaps": 128,
  "Groups": 1,
  "Weights": {"Type": "Float", "Count": 3456},
  "Bias": {"Type": "Float", "Count": 128},
  "HasSparseWeights": 0,
  "HasDynamicFilter": 0,
  "HasDynamicBias": 0,
  "HasResidual": 0,
  "ConvXAsActInputIdx": -1,
  "BiasAsActInputIdx": -1,
  "ResAsActInputIdx": -1,
  "Activation": "RELU",
  "HasBias": 1,
  "HasReLU": 1,
  "TacticName": "sm80_xmma_fprop_implicit_gemm_f32f32_f32f32_f32_nchwkcrs_nchw_tilesize64x64x8_stage3_warpsize1x4x1_g1_ffma_t1r3s3_aligna4_alignc4",
  "TacticValue": "0x4727434768e46395",
  "StreamId": 0,
  "Metadata": "[ONNX Layer: /feature_layers.0/Conv]\u001e[ONNX Layer: /feature_layers.2/Relu]"
},{
  "Name": "/feature_layers.3/Conv + /feature_layers.5/Relu",
  "LayerType": "CaskConvolution",
  "Inputs": [
  {
    "Name": "/feature_layers.2/Relu_output_0",
    "Location": "Device",
    "Dimensions": [1,128,32,32],
    "Format/Datatype": "Row major linear FP32"
  }],
  "Outputs": [
  {
    "Name": "/feature_layers.5/Relu_output_0",
    "Location": "Device",
    "Dimensions": [1,128,32,32],
    "Format/Datatype": "Row major linear FP32"
  }],
  "ParameterType": "Convolution",
  "Kernel": [3,3],
  "PaddingMode": "kEXPLICIT_ROUND_DOWN",
  "PrePadding": [1,1],
  "PostPadding": [1,1],
  "Stride": [1,1],
  "Dilation": [1,1],
  "OutMaps": 128,
  "Groups": 1,
  "Weights": {"Type": "Float", "Count": 147456},
  "Bias": {"Type": "Float", "Count": 128},
  "HasSparseWeights": 0,
  "HasDynamicFilter": 0,
  "HasDynamicBias": 0,
  "HasResidual": 0,
  "ConvXAsActInputIdx": -1,
  "BiasAsActInputIdx": -1,
  "ResAsActInputIdx": -1,
  "Activation": "RELU",
  "HasBias": 1,
  "HasReLU": 1,
  "TacticName": "ampere_scudnn_winograd_128x128_ldg1_ldg4_relu_tile148t_nt_v1",
  "TacticValue": "0x94119b4c514b211a",
  "StreamId": 0,
  "Metadata": "[ONNX Layer: /feature_layers.3/Conv]\u001e[ONNX Layer: /feature_layers.5/Relu]"
},{
  "Name": "/feature_layers.6/MaxPool",
  "LayerType": "CaskPooling",
  "Inputs": [
  {
    "Name": "/feature_layers.5/Relu_output_0",
    "Location": "Device",
    "Dimensions": [1,128,32,32],
    "Format/Datatype": "Row major linear FP32"
  }],
  "Outputs": [
  {
    "Name": "/feature_layers.6/MaxPool_output_0",
    "Location": "Device",
    "Dimensions": [1,128,16,16],
    "Format/Datatype": "Row major linear FP32"
  }],
  "ParameterType": "Pooling",
  "PoolingType": "MAX",
  "WindowSize": [2,2],
  "PaddingMode": "kEXPLICIT_ROUND_DOWN",
  "PrePadding": [0,0],
  "PostPadding": [0,0],
  "Stride": [2,2],
  "BlendFactor": 0,
  "AverageCountExcludesPadding": 1,
  "TacticName": "sm50_xmma_pooling_tiled_FP32NCHW_kMAX_tP2_tQ16_tR2_tS2_tU2_tV2_tUnroll7_tThreads128",
  "TacticValue": "0x291bf03c1842464a",
  "StreamId": 0,
  "Metadata": "[ONNX Layer: /feature_layers.6/MaxPool]"
},{
  "Name": "/feature_layers.7/Conv + /feature_layers.9/Relu",
  "LayerType": "CaskConvolution",
  "Inputs": [
  {
    "Name": "/feature_layers.6/MaxPool_output_0",
    "Location": "Device",
    "Dimensions": [1,128,16,16],
    "Format/Datatype": "Row major linear FP32"
  }],
  "Outputs": [
  {
    "Name": "/feature_layers.9/Relu_output_0",
    "Location": "Device",
    "Dimensions": [1,256,16,16],
    "Format/Datatype": "Row major linear FP32"
  }],
  "ParameterType": "Convolution",
  "Kernel": [3,3],
  "PaddingMode": "kEXPLICIT_ROUND_DOWN",
  "PrePadding": [1,1],
  "PostPadding": [1,1],
  "Stride": [1,1],
  "Dilation": [1,1],
  "OutMaps": 256,
  "Groups": 1,
  "Weights": {"Type": "Float", "Count": 294912},
  "Bias": {"Type": "Float", "Count": 256},
  "HasSparseWeights": 0,
  "HasDynamicFilter": 0,
  "HasDynamicBias": 0,
  "HasResidual": 0,
  "ConvXAsActInputIdx": -1,
  "BiasAsActInputIdx": -1,
  "ResAsActInputIdx": -1,
  "Activation": "RELU",
  "HasBias": 1,
  "HasReLU": 1,
  "TacticName": "sm80_xmma_fprop_wngd_f32f32_f32_f32_nchwkcrs_nchw_tilesize8x16x16x8_warpsize8x1x1_wngd2x2",
  "TacticValue": "0xe38e9dfd56c33779",
  "StreamId": 0,
  "Metadata": "[ONNX Layer: /feature_layers.7/Conv]\u001e[ONNX Layer: /feature_layers.9/Relu]"
},{
  "Name": "/feature_layers.10/Conv + /feature_layers.12/Relu",
  "LayerType": "CaskConvolution",
  "Inputs": [
  {
    "Name": "/feature_layers.9/Relu_output_0",
    "Location": "Device",
    "Dimensions": [1,256,16,16],
    "Format/Datatype": "Row major linear FP32"
  }],
  "Outputs": [
  {
    "Name": "/feature_layers.12/Relu_output_0",
    "Location": "Device",
    "Dimensions": [1,256,16,16],
    "Format/Datatype": "Row major linear FP32"
  }],
  "ParameterType": "Convolution",
  "Kernel": [3,3],
  "PaddingMode": "kEXPLICIT_ROUND_DOWN",
  "PrePadding": [1,1],
  "PostPadding": [1,1],
  "Stride": [1,1],
  "Dilation": [1,1],
  "OutMaps": 256,
  "Groups": 1,
  "Weights": {"Type": "Float", "Count": 589824},
  "Bias": {"Type": "Float", "Count": 256},
  "HasSparseWeights": 0,
  "HasDynamicFilter": 0,
  "HasDynamicBias": 0,
  "HasResidual": 0,
  "ConvXAsActInputIdx": -1,
  "BiasAsActInputIdx": -1,
  "ResAsActInputIdx": -1,
  "Activation": "RELU",
  "HasBias": 1,
  "HasReLU": 1,
  "TacticName": "sm80_xmma_fprop_wngd_f32f32_f32_f32_nchwkcrs_nchw_tilesize8x16x16x8_warpsize8x1x1_wngd2x2",
  "TacticValue": "0xe38e9dfd56c33779",
  "StreamId": 0,
  "Metadata": "[ONNX Layer: /feature_layers.10/Conv]\u001e[ONNX Layer: /feature_layers.12/Relu]"
},{
  "Name": "/feature_layers.13/MaxPool",
  "LayerType": "CaskPooling",
  "Inputs": [
  {
    "Name": "/feature_layers.12/Relu_output_0",
    "Location": "Device",
    "Dimensions": [1,256,16,16],
    "Format/Datatype": "Row major linear FP32"
  }],
  "Outputs": [
  {
    "Name": "/feature_layers.13/MaxPool_output_0",
    "Location": "Device",
    "Dimensions": [1,256,8,8],
    "Format/Datatype": "Row major linear FP32"
  }],
  "ParameterType": "Pooling",
  "PoolingType": "MAX",
  "WindowSize": [2,2],
  "PaddingMode": "kEXPLICIT_ROUND_DOWN",
  "PrePadding": [0,0],
  "PostPadding": [0,0],
  "Stride": [2,2],
  "BlendFactor": 0,
  "AverageCountExcludesPadding": 1,
  "TacticName": "sm50_xmma_pooling_tiled_FP32NCHW_kMAX_tP2_tQ16_tR2_tS2_tU2_tV2_tUnroll4_tThreads128",
  "TacticValue": "0xdd39499496c9cc38",
  "StreamId": 0,
  "Metadata": "[ONNX Layer: /feature_layers.13/MaxPool]"
},{
  "Name": "/feature_layers.14/Conv + /feature_layers.16/Relu",
  "LayerType": "CaskConvolution",
  "Inputs": [
  {
    "Name": "/feature_layers.13/MaxPool_output_0",
    "Location": "Device",
    "Dimensions": [1,256,8,8],
    "Format/Datatype": "Row major linear FP32"
  }],
  "Outputs": [
  {
    "Name": "/feature_layers.16/Relu_output_0",
    "Location": "Device",
    "Dimensions": [1,512,8,8],
    "Format/Datatype": "Row major linear FP32"
  }],
  "ParameterType": "Convolution",
  "Kernel": [3,3],
  "PaddingMode": "kEXPLICIT_ROUND_DOWN",
  "PrePadding": [1,1],
  "PostPadding": [1,1],
  "Stride": [1,1],
  "Dilation": [1,1],
  "OutMaps": 512,
  "Groups": 1,
  "Weights": {"Type": "Float", "Count": 1179648},
  "Bias": {"Type": "Float", "Count": 512},
  "HasSparseWeights": 0,
  "HasDynamicFilter": 0,
  "HasDynamicBias": 0,
  "HasResidual": 0,
  "ConvXAsActInputIdx": -1,
  "BiasAsActInputIdx": -1,
  "ResAsActInputIdx": -1,
  "Activation": "RELU",
  "HasBias": 1,
  "HasReLU": 1,
  "TacticName": "sm50_xmma_conv_fprop_fused_conv_act_fp32_NCHW_fp32_NCHW_KCRS_fp32_fp32_fp32_Accfloat_1_1_cC1_dC1_srcVec2_fltVec1_1_TP6_TQ8_C8_R3_S3_U1_V1",
  "TacticValue": "0xee473898b5318f6e",
  "StreamId": 0,
  "Metadata": "[ONNX Layer: /feature_layers.14/Conv]\u001e[ONNX Layer: /feature_layers.16/Relu]"
},{
  "Name": "/feature_layers.17/Conv + /feature_layers.19/Relu",
  "LayerType": "CaskConvolution",
  "Inputs": [
  {
    "Name": "/feature_layers.16/Relu_output_0",
    "Location": "Device",
    "Dimensions": [1,512,8,8],
    "Format/Datatype": "Row major linear FP32"
  }],
  "Outputs": [
  {
    "Name": "/feature_layers.19/Relu_output_0",
    "Location": "Device",
    "Dimensions": [1,512,8,8],
    "Format/Datatype": "Row major linear FP32"
  }],
  "ParameterType": "Convolution",
  "Kernel": [3,3],
  "PaddingMode": "kEXPLICIT_ROUND_DOWN",
  "PrePadding": [1,1],
  "PostPadding": [1,1],
  "Stride": [1,1],
  "Dilation": [1,1],
  "OutMaps": 512,
  "Groups": 1,
  "Weights": {"Type": "Float", "Count": 2359296},
  "Bias": {"Type": "Float", "Count": 512},
  "HasSparseWeights": 0,
  "HasDynamicFilter": 0,
  "HasDynamicBias": 0,
  "HasResidual": 0,
  "ConvXAsActInputIdx": -1,
  "BiasAsActInputIdx": -1,
  "ResAsActInputIdx": -1,
  "Activation": "RELU",
  "HasBias": 1,
  "HasReLU": 1,
  "TacticName": "sm50_xmma_conv_fprop_fused_conv_act_fp32_NCHW_fp32_NCHW_KCRS_fp32_fp32_fp32_Accfloat_1_1_cC1_dC1_srcVec2_fltVec1_1_TP6_TQ8_C8_R3_S3_U1_V1",
  "TacticValue": "0xee473898b5318f6e",
  "StreamId": 0,
  "Metadata": "[ONNX Layer: /feature_layers.17/Conv]\u001e[ONNX Layer: /feature_layers.19/Relu]"
},{
  "Name": "/feature_layers.20/MaxPool",
  "LayerType": "CaskPooling",
  "Inputs": [
  {
    "Name": "/feature_layers.19/Relu_output_0",
    "Location": "Device",
    "Dimensions": [1,512,8,8],
    "Format/Datatype": "Row major linear FP32"
  }],
  "Outputs": [
  {
    "Name": "/feature_layers.20/MaxPool_output_0",
    "Location": "Device",
    "Dimensions": [1,512,4,4],
    "Format/Datatype": "Row major linear FP32"
  }],
  "ParameterType": "Pooling",
  "PoolingType": "MAX",
  "WindowSize": [2,2],
  "PaddingMode": "kEXPLICIT_ROUND_DOWN",
  "PrePadding": [0,0],
  "PostPadding": [0,0],
  "Stride": [2,2],
  "BlendFactor": 0,
  "AverageCountExcludesPadding": 1,
  "TacticName": "sm50_xmma_pooling_tiled_FP32NCHW_kMAX_tP2_tQ16_tR2_tS2_tU2_tV2_tUnroll3_tThreads128",
  "TacticValue": "0x7a0d6790c453b5f4",
  "StreamId": 0,
  "Metadata": "[ONNX Layer: /feature_layers.20/MaxPool]"
},{
  "Name": "/Reshape + reshape_before_/classifier.0/Gemm",
  "LayerType": "NoOp",
  "Inputs": [
  {
    "Name": "/feature_layers.20/MaxPool_output_0",
    "Location": "Device",
    "Dimensions": [1,512,4,4],
    "Format/Datatype": "Row major linear FP32"
  }],
  "Outputs": [
  {
    "Name": "reshape_before_/classifier.0/Gemm_out_tensor",
    "Location": "Device",
    "Dimensions": [1,8192,1,1],
    "Format/Datatype": "Row major linear FP32"
  }],
  "TacticValue": "0x0000000000000000",
  "StreamId": 0,
  "Metadata": "[ONNX Layer: /Reshape]\u001e[ONNX Layer: /classifier.0/Gemm]"
},{
  "Name": "/classifier.0/Gemm + /classifier.1/Relu",
  "LayerType": "CaskGemmConvolution",
  "Inputs": [
  {
    "Name": "reshape_before_/classifier.0/Gemm_out_tensor",
    "Location": "Device",
    "Dimensions": [1,8192,1,1],
    "Format/Datatype": "Row major linear FP32"
  }],
  "Outputs": [
  {
    "Name": "/classifier.1/Relu_out_tensor",
    "Location": "Device",
    "Dimensions": [1,1024,1,1],
    "Format/Datatype": "Row major linear FP32"
  }],
  "ParameterType": "Convolution",
  "Kernel": [1,1],
  "PaddingMode": "kEXPLICIT_ROUND_DOWN",
  "PrePadding": [0,0],
  "PostPadding": [0,0],
  "Stride": [1,1],
  "Dilation": [1,1],
  "OutMaps": 1024,
  "Groups": 1,
  "Weights": {"Type": "Float", "Count": 8388608},
  "Bias": {"Type": "Float", "Count": 1024},
  "HasSparseWeights": 0,
  "HasDynamicFilter": 0,
  "HasDynamicBias": 0,
  "HasResidual": 0,
  "ConvXAsActInputIdx": -1,
  "BiasAsActInputIdx": -1,
  "ResAsActInputIdx": -1,
  "Activation": "RELU",
  "TacticName": "sm50_xmma_cublas_gemvx_f32f32_f32_f32_tn_n_int32_unit_n_launch_param16x32x32_strided_unit_stride",
  "TacticValue": "0x0000000000020213",
  "StreamId": 0,
  "Metadata": "[ONNX Layer: /classifier.0/Gemm]\u001e[ONNX Layer: /classifier.1/Relu]"
},{
  "Name": "/classifier.2/Gemm + /classifier.3/Relu",
  "LayerType": "CaskGemmConvolution",
  "Inputs": [
  {
    "Name": "/classifier.1/Relu_out_tensor",
    "Location": "Device",
    "Dimensions": [1,1024,1,1],
    "Format/Datatype": "Row major linear FP32"
  }],
  "Outputs": [
  {
    "Name": "/classifier.3/Relu_out_tensor",
    "Location": "Device",
    "Dimensions": [1,1024,1,1],
    "Format/Datatype": "Row major linear FP32"
  }],
  "ParameterType": "Convolution",
  "Kernel": [1,1],
  "PaddingMode": "kEXPLICIT_ROUND_DOWN",
  "PrePadding": [0,0],
  "PostPadding": [0,0],
  "Stride": [1,1],
  "Dilation": [1,1],
  "OutMaps": 1024,
  "Groups": 1,
  "Weights": {"Type": "Float", "Count": 1048576},
  "Bias": {"Type": "Float", "Count": 1024},
  "HasSparseWeights": 0,
  "HasDynamicFilter": 0,
  "HasDynamicBias": 0,
  "HasResidual": 0,
  "ConvXAsActInputIdx": -1,
  "BiasAsActInputIdx": -1,
  "ResAsActInputIdx": -1,
  "Activation": "RELU",
  "TacticName": "sm50_xmma_cublas_gemvx_f32f32_f32_f32_nn_n_int32_unit_n_launch_param16x8x8_strided_unit_stride",
  "TacticValue": "0x00000000000201be",
  "StreamId": 0,
  "Metadata": "[ONNX Layer: /classifier.2/Gemm]\u001e[ONNX Layer: /classifier.3/Relu]"
},{
  "Name": "/last_layer/Gemm",
  "LayerType": "CaskGemmConvolution",
  "Inputs": [
  {
    "Name": "/classifier.3/Relu_out_tensor",
    "Location": "Device",
    "Dimensions": [1,1024,1,1],
    "Format/Datatype": "Row major linear FP32"
  }],
  "Outputs": [
  {
    "Name": "/last_layer/Gemm_out_tensor",
    "Location": "Device",
    "Dimensions": [1,10,1,1],
    "Format/Datatype": "Row major linear FP32"
  }],
  "ParameterType": "Convolution",
  "Kernel": [1,1],
  "PaddingMode": "kEXPLICIT_ROUND_DOWN",
  "PrePadding": [0,0],
  "PostPadding": [0,0],
  "Stride": [1,1],
  "Dilation": [1,1],
  "OutMaps": 10,
  "Groups": 1,
  "Weights": {"Type": "Float", "Count": 10240},
  "Bias": {"Type": "Float", "Count": 10},
  "HasSparseWeights": 0,
  "HasDynamicFilter": 0,
  "HasDynamicBias": 0,
  "HasResidual": 0,
  "ConvXAsActInputIdx": -1,
  "BiasAsActInputIdx": -1,
  "ResAsActInputIdx": -1,
  "Activation": "NONE",
  "TacticName": "sm50_xmma_cublas_gemvx_f32f32_f32_f32_tn_n_int32_unit_n_launch_param4x32x32_strided_unit_stride",
  "TacticValue": "0x00000000000204b1",
  "StreamId": 0,
  "Metadata": "[ONNX Layer: /last_layer/Gemm]"
},{
  "Name": "reshape_after_/last_layer/Gemm",
  "LayerType": "NoOp",
  "Inputs": [
  {
    "Name": "/last_layer/Gemm_out_tensor",
    "Location": "Device",
    "Dimensions": [1,10,1,1],
    "Format/Datatype": "Row major linear FP32"
  }],
  "Outputs": [
  {
    "Name": "output",
    "Location": "Device",
    "Dimensions": [1,10],
    "Format/Datatype": "Row major linear FP32"
  }],
  "TacticValue": "0x0000000000000000",
  "StreamId": 0,
  "Metadata": "[ONNX Layer: /last_layer/Gemm]"
}],
"Bindings": ["input"
,"output"
]}
