{"Layers": [{
  "Name": "/feature_layers.0/_input_quantizer/QuantizeLinear",
  "LayerType": "Reformat",
  "Inputs": [
  {
    "Name": "input",
    "Location": "Device",
    "Dimensions": [1,3,32,32],
    "Format/Datatype": "Row major linear FP32"
  }],
  "Outputs": [
  {
    "Name": "/feature_layers.0/_input_quantizer/QuantizeLinear_output_0",
    "Location": "Device",
    "Dimensions": [1,3,32,32],
    "Format/Datatype": "Four wide channel vectorized row major Int8 format"
  }],
  "ParameterType": "Reformat",
  "Origin": "QDQ",
  "TacticValue": "0x0000000000000000",
  "StreamId": 0,
  "Metadata": ""
},{
  "Name": "feature_layers.0.weight + /feature_layers.0/_weight_quantizer/QuantizeLinear + /feature_layers.0/Conv",
  "LayerType": "CaskConvolution",
  "Inputs": [
  {
    "Name": "/feature_layers.0/_input_quantizer/QuantizeLinear_output_0",
    "Location": "Device",
    "Dimensions": [1,3,32,32],
    "Format/Datatype": "Four wide channel vectorized row major Int8 format"
  }],
  "Outputs": [
  {
    "Name": "/feature_layers.2/Relu_output_0",
    "Location": "Device",
    "Dimensions": [1,128,32,32],
    "Format/Datatype": "Row major linear FP32"
  }],
  "ParameterType": "Convolution",
  "Kernel": [3,3],
  "PaddingMode": "kEXPLICIT_ROUND_DOWN",
  "PrePadding": [1,1],
  "PostPadding": [1,1],
  "Stride": [1,1],
  "Dilation": [1,1],
  "OutMaps": 128,
  "Groups": 1,
  "Weights": {"Type": "Int8", "Count": 3456},
  "Bias": {"Type": "Float", "Count": 128},
  "HasSparseWeights": 0,
  "HasDynamicFilter": 0,
  "HasDynamicBias": 0,
  "HasResidual": 0,
  "ConvXAsActInputIdx": -1,
  "BiasAsActInputIdx": -1,
  "ResAsActInputIdx": -1,
  "Activation": "RELU",
  "HasBias": 1,
  "HasReLU": 1,
  "TacticName": "sm80_xmma_fprop_first_layer_i8f32_i8i32_f32_nchw_vect_c_4kcrs_vect_c_4_nchw_tilesize8x16x32x32_stage1_warpsize4x1x1_tensor16x8x16_r3s3_u1v1_aligna4_alignc8",
  "TacticValue": "0x307ddcaa5dcf01ec",
  "StreamId": 0,
  "Metadata": "[ONNX Layer: /feature_layers.0/Conv]"
},{
  "Name": "/feature_layers.3/Conv + /feature_layers.5/Relu",
  "LayerType": "CaskConvolution",
  "Inputs": [
  {
    "Name": "/feature_layers.2/Relu_output_0",
    "Location": "Device",
    "Dimensions": [1,128,32,32],
    "Format/Datatype": "Row major linear FP32"
  }],
  "Outputs": [
  {
    "Name": "/feature_layers.5/Relu_output_0",
    "Location": "Device",
    "Dimensions": [1,128,32,32],
    "Format/Datatype": "Row major linear FP32"
  }],
  "ParameterType": "Convolution",
  "Kernel": [3,3],
  "PaddingMode": "kEXPLICIT_ROUND_DOWN",
  "PrePadding": [1,1],
  "PostPadding": [1,1],
  "Stride": [1,1],
  "Dilation": [1,1],
  "OutMaps": 128,
  "Groups": 1,
  "Weights": {"Type": "Float", "Count": 147456},
  "Bias": {"Type": "Float", "Count": 128},
  "HasSparseWeights": 0,
  "HasDynamicFilter": 0,
  "HasDynamicBias": 0,
  "HasResidual": 0,
  "ConvXAsActInputIdx": -1,
  "BiasAsActInputIdx": -1,
  "ResAsActInputIdx": -1,
  "Activation": "RELU",
  "HasBias": 1,
  "HasReLU": 1,
  "TacticName": "ampere_scudnn_winograd_128x128_ldg1_ldg4_relu_tile148t_nt_v1",
  "TacticValue": "0x94119b4c514b211a",
  "StreamId": 0,
  "Metadata": "[ONNX Layer: /feature_layers.3/Conv]\u001e[ONNX Layer: /feature_layers.5/Relu]"
},{
  "Name": "/feature_layers.7/_input_quantizer/QuantizeLinear",
  "LayerType": "Reformat",
  "Inputs": [
  {
    "Name": "/feature_layers.5/Relu_output_0",
    "Location": "Device",
    "Dimensions": [1,128,32,32],
    "Format/Datatype": "Row major linear FP32"
  }],
  "Outputs": [
  {
    "Name": "/feature_layers.6/MaxPool_output_0",
    "Location": "Device",
    "Dimensions": [1,128,32,32],
    "Format/Datatype": "Four wide channel vectorized row major Int8 format"
  }],
  "ParameterType": "Reformat",
  "Origin": "QDQ",
  "TacticValue": "0x0000000000000000",
  "StreamId": 0,
  "Metadata": ""
},{
  "Name": "/feature_layers.6/MaxPool",
  "LayerType": "CaskPooling",
  "Inputs": [
  {
    "Name": "/feature_layers.6/MaxPool_output_0",
    "Location": "Device",
    "Dimensions": [1,128,32,32],
    "Format/Datatype": "Four wide channel vectorized row major Int8 format"
  }],
  "Outputs": [
  {
    "Name": "/feature_layers.7/_input_quantizer/QuantizeLinear_output_0",
    "Location": "Device",
    "Dimensions": [1,128,16,16],
    "Format/Datatype": "Four wide channel vectorized row major Int8 format"
  }],
  "ParameterType": "Pooling",
  "PoolingType": "MAX",
  "WindowSize": [2,2],
  "PaddingMode": "kEXPLICIT_ROUND_DOWN",
  "PrePadding": [0,0],
  "PostPadding": [0,0],
  "Stride": [2,2],
  "BlendFactor": 0,
  "AverageCountExcludesPadding": 1,
  "TacticName": "sm50_xmma_pooling_tiled_INT8NCxHW4_kMAX_tP2_tQ16_tR2_tS2_tU2_tV2_tUnroll1_tThreads128",
  "TacticValue": "0xdf1633a6804bc483",
  "StreamId": 0,
  "Metadata": "[ONNX Layer: /feature_layers.6/MaxPool]"
},{
  "Name": "Reformatting CopyNode for Input Tensor 0 to feature_layers.7.weight + /feature_layers.7/_weight_quantizer/QuantizeLinear + /feature_layers.7/Conv",
  "LayerType": "Reformat",
  "Inputs": [
  {
    "Name": "/feature_layers.7/_input_quantizer/QuantizeLinear_output_0",
    "Location": "Device",
    "Dimensions": [1,128,16,16],
    "Format/Datatype": "Four wide channel vectorized row major Int8 format"
  }],
  "Outputs": [
  {
    "Name": "Reformatted Input Tensor 0 to feature_layers.7.weight + /feature_layers.7/_weight_quantizer/QuantizeLinear + /feature_layers.7/Conv",
    "Location": "Device",
    "Dimensions": [1,128,16,16],
    "Format/Datatype": "Thirty-two wide channel vectorized row major Int8 format"
  }],
  "ParameterType": "Reformat",
  "Origin": "REFORMAT",
  "TacticValue": "0x0000000000000000",
  "StreamId": 0,
  "Metadata": ""
},{
  "Name": "feature_layers.7.weight + /feature_layers.7/_weight_quantizer/QuantizeLinear + /feature_layers.7/Conv",
  "LayerType": "CaskConvolution",
  "Inputs": [
  {
    "Name": "Reformatted Input Tensor 0 to feature_layers.7.weight + /feature_layers.7/_weight_quantizer/QuantizeLinear + /feature_layers.7/Conv",
    "Location": "Device",
    "Dimensions": [1,128,16,16],
    "Format/Datatype": "Thirty-two wide channel vectorized row major Int8 format"
  }],
  "Outputs": [
  {
    "Name": "/feature_layers.10/_input_quantizer/QuantizeLinear_output_0",
    "Location": "Device",
    "Dimensions": [1,256,16,16],
    "Format/Datatype": "Thirty-two wide channel vectorized row major Int8 format"
  }],
  "ParameterType": "Convolution",
  "Kernel": [3,3],
  "PaddingMode": "kEXPLICIT_ROUND_DOWN",
  "PrePadding": [1,1],
  "PostPadding": [1,1],
  "Stride": [1,1],
  "Dilation": [1,1],
  "OutMaps": 256,
  "Groups": 1,
  "Weights": {"Type": "Int8", "Count": 294912},
  "Bias": {"Type": "Float", "Count": 256},
  "HasSparseWeights": 0,
  "HasDynamicFilter": 0,
  "HasDynamicBias": 0,
  "HasResidual": 0,
  "ConvXAsActInputIdx": -1,
  "BiasAsActInputIdx": -1,
  "ResAsActInputIdx": -1,
  "Activation": "RELU",
  "HasBias": 1,
  "HasReLU": 1,
  "TacticName": "sm80_xmma_fprop_implicit_gemm_interleaved_i8i8_i8i32_f32_nchw_vect_c_32kcrs_vect_c_32_nchw_vect_c_32_tilesize32x64x64_stage6_warpsize2x2x1_g1_tensor16x8x32_t1r3s3",
  "TacticValue": "0xd3f592fae61c7986",
  "StreamId": 0,
  "Metadata": "[ONNX Layer: /feature_layers.7/Conv]"
},{
  "Name": "feature_layers.10.weight + /feature_layers.10/_weight_quantizer/QuantizeLinear + /feature_layers.10/Conv",
  "LayerType": "CaskConvolution",
  "Inputs": [
  {
    "Name": "/feature_layers.10/_input_quantizer/QuantizeLinear_output_0",
    "Location": "Device",
    "Dimensions": [1,256,16,16],
    "Format/Datatype": "Thirty-two wide channel vectorized row major Int8 format"
  }],
  "Outputs": [
  {
    "Name": "/feature_layers.13/MaxPool_output_0",
    "Location": "Device",
    "Dimensions": [1,256,16,16],
    "Format/Datatype": "Thirty-two wide channel vectorized row major Int8 format"
  }],
  "ParameterType": "Convolution",
  "Kernel": [3,3],
  "PaddingMode": "kEXPLICIT_ROUND_DOWN",
  "PrePadding": [1,1],
  "PostPadding": [1,1],
  "Stride": [1,1],
  "Dilation": [1,1],
  "OutMaps": 256,
  "Groups": 1,
  "Weights": {"Type": "Int8", "Count": 589824},
  "Bias": {"Type": "Float", "Count": 256},
  "HasSparseWeights": 0,
  "HasDynamicFilter": 0,
  "HasDynamicBias": 0,
  "HasResidual": 0,
  "ConvXAsActInputIdx": -1,
  "BiasAsActInputIdx": -1,
  "ResAsActInputIdx": -1,
  "Activation": "RELU",
  "HasBias": 1,
  "HasReLU": 1,
  "TacticName": "sm80_xmma_fprop_implicit_gemm_interleaved_i8i8_i8i32_f32_nchw_vect_c_32kcrs_vect_c_32_nchw_vect_c_32_tilesize32x64x64_stage6_warpsize2x2x1_g1_tensor16x8x32_t1r3s3",
  "TacticValue": "0xd3f592fae61c7986",
  "StreamId": 0,
  "Metadata": "[ONNX Layer: /feature_layers.10/Conv]"
},{
  "Name": "/feature_layers.13/MaxPool",
  "LayerType": "CaskPooling",
  "Inputs": [
  {
    "Name": "/feature_layers.13/MaxPool_output_0",
    "Location": "Device",
    "Dimensions": [1,256,16,16],
    "Format/Datatype": "Thirty-two wide channel vectorized row major Int8 format"
  }],
  "Outputs": [
  {
    "Name": "/feature_layers.14/_input_quantizer/QuantizeLinear_output_0",
    "Location": "Device",
    "Dimensions": [1,256,8,8],
    "Format/Datatype": "Thirty-two wide channel vectorized row major Int8 format"
  }],
  "ParameterType": "Pooling",
  "PoolingType": "MAX",
  "WindowSize": [2,2],
  "PaddingMode": "kEXPLICIT_ROUND_DOWN",
  "PrePadding": [0,0],
  "PostPadding": [0,0],
  "Stride": [2,2],
  "BlendFactor": 0,
  "AverageCountExcludesPadding": 1,
  "TacticName": "sm72_xmma_pooling_IMMA_NCxHW32_generic_kMAX",
  "TacticValue": "0x94215b398b8eb3ba",
  "StreamId": 0,
  "Metadata": "[ONNX Layer: /feature_layers.13/MaxPool]"
},{
  "Name": "feature_layers.14.weight + /feature_layers.14/_weight_quantizer/QuantizeLinear + /feature_layers.14/Conv",
  "LayerType": "CaskConvolution",
  "Inputs": [
  {
    "Name": "/feature_layers.14/_input_quantizer/QuantizeLinear_output_0",
    "Location": "Device",
    "Dimensions": [1,256,8,8],
    "Format/Datatype": "Thirty-two wide channel vectorized row major Int8 format"
  }],
  "Outputs": [
  {
    "Name": "/feature_layers.17/_input_quantizer/QuantizeLinear_output_0",
    "Location": "Device",
    "Dimensions": [1,512,8,8],
    "Format/Datatype": "Thirty-two wide channel vectorized row major Int8 format"
  }],
  "ParameterType": "Convolution",
  "Kernel": [3,3],
  "PaddingMode": "kEXPLICIT_ROUND_DOWN",
  "PrePadding": [1,1],
  "PostPadding": [1,1],
  "Stride": [1,1],
  "Dilation": [1,1],
  "OutMaps": 512,
  "Groups": 1,
  "Weights": {"Type": "Int8", "Count": 1179648},
  "Bias": {"Type": "Float", "Count": 512},
  "HasSparseWeights": 0,
  "HasDynamicFilter": 0,
  "HasDynamicBias": 0,
  "HasResidual": 0,
  "ConvXAsActInputIdx": -1,
  "BiasAsActInputIdx": -1,
  "ResAsActInputIdx": -1,
  "Activation": "RELU",
  "HasBias": 1,
  "HasReLU": 1,
  "TacticName": "sm80_xmma_fprop_implicit_gemm_interleaved_i8i8_i8i32_f32_nchw_vect_c_32kcrs_vect_c_32_nchw_vect_c_32_tilesize32x32x64_stage6_warpsize2x1x1_g1_tensor16x8x32_t1r3s3",
  "TacticValue": "0x4749124f62d8bd23",
  "StreamId": 0,
  "Metadata": "[ONNX Layer: /feature_layers.14/Conv]"
},{
  "Name": "feature_layers.17.weight + /feature_layers.17/_weight_quantizer/QuantizeLinear + /feature_layers.17/Conv",
  "LayerType": "CaskConvolution",
  "Inputs": [
  {
    "Name": "/feature_layers.17/_input_quantizer/QuantizeLinear_output_0",
    "Location": "Device",
    "Dimensions": [1,512,8,8],
    "Format/Datatype": "Thirty-two wide channel vectorized row major Int8 format"
  }],
  "Outputs": [
  {
    "Name": "/feature_layers.20/MaxPool_output_0",
    "Location": "Device",
    "Dimensions": [1,512,8,8],
    "Format/Datatype": "Thirty-two wide channel vectorized row major Int8 format"
  }],
  "ParameterType": "Convolution",
  "Kernel": [3,3],
  "PaddingMode": "kEXPLICIT_ROUND_DOWN",
  "PrePadding": [1,1],
  "PostPadding": [1,1],
  "Stride": [1,1],
  "Dilation": [1,1],
  "OutMaps": 512,
  "Groups": 1,
  "Weights": {"Type": "Int8", "Count": 2359296},
  "Bias": {"Type": "Float", "Count": 512},
  "HasSparseWeights": 0,
  "HasDynamicFilter": 0,
  "HasDynamicBias": 0,
  "HasResidual": 0,
  "ConvXAsActInputIdx": -1,
  "BiasAsActInputIdx": -1,
  "ResAsActInputIdx": -1,
  "Activation": "RELU",
  "HasBias": 1,
  "HasReLU": 1,
  "TacticName": "sm80_xmma_fprop_implicit_gemm_interleaved_i8i8_i8i32_f32_nchw_vect_c_32kcrs_vect_c_32_nchw_vect_c_32_tilesize32x32x64_stage6_warpsize2x1x1_g1_tensor16x8x32_t1r3s3",
  "TacticValue": "0x4749124f62d8bd23",
  "StreamId": 0,
  "Metadata": "[ONNX Layer: /feature_layers.17/Conv]"
},{
  "Name": "/feature_layers.20/MaxPool",
  "LayerType": "CaskPooling",
  "Inputs": [
  {
    "Name": "/feature_layers.20/MaxPool_output_0",
    "Location": "Device",
    "Dimensions": [1,512,8,8],
    "Format/Datatype": "Thirty-two wide channel vectorized row major Int8 format"
  }],
  "Outputs": [
  {
    "Name": "/Reshape_output_0",
    "Location": "Device",
    "Dimensions": [1,512,4,4],
    "Format/Datatype": "Thirty-two wide channel vectorized row major Int8 format"
  }],
  "ParameterType": "Pooling",
  "PoolingType": "MAX",
  "WindowSize": [2,2],
  "PaddingMode": "kEXPLICIT_ROUND_DOWN",
  "PrePadding": [0,0],
  "PostPadding": [0,0],
  "Stride": [2,2],
  "BlendFactor": 0,
  "AverageCountExcludesPadding": 1,
  "TacticName": "sm72_xmma_pooling_IMMA_NCxHW32_generic_kMAX",
  "TacticValue": "0x94215b398b8eb3ba",
  "StreamId": 0,
  "Metadata": "[ONNX Layer: /feature_layers.20/MaxPool]"
},{
  "Name": "Reformatting CopyNode for Input Tensor 0 to /Reshape + reshape_before_/classifier.0/Gemm",
  "LayerType": "Reformat",
  "Inputs": [
  {
    "Name": "/Reshape_output_0",
    "Location": "Device",
    "Dimensions": [1,512,4,4],
    "Format/Datatype": "Thirty-two wide channel vectorized row major Int8 format"
  }],
  "Outputs": [
  {
    "Name": "Reformatted Input Tensor 0 to /Reshape + reshape_before_/classifier.0/Gemm",
    "Location": "Device",
    "Dimensions": [1,512,4,4],
    "Format/Datatype": "Row major Int8 format"
  }],
  "ParameterType": "Reformat",
  "Origin": "REFORMAT",
  "TacticValue": "0x00000000000003e8",
  "StreamId": 0,
  "Metadata": ""
},{
  "Name": "/Reshape + reshape_before_/classifier.0/Gemm",
  "LayerType": "NoOp",
  "Inputs": [
  {
    "Name": "Reformatted Input Tensor 0 to /Reshape + reshape_before_/classifier.0/Gemm",
    "Location": "Device",
    "Dimensions": [1,512,4,4],
    "Format/Datatype": "Row major Int8 format"
  }],
  "Outputs": [
  {
    "Name": "/classifier.0/_input_quantizer/DequantizeLinear_output_0",
    "Location": "Device",
    "Dimensions": [1,8192,1,1],
    "Format/Datatype": "Row major Int8 format"
  }],
  "TacticValue": "0x0000000000000000",
  "StreamId": 0,
  "Metadata": "[ONNX Layer: /Reshape]\u001e[ONNX Layer: /classifier.0/Gemm]"
},{
  "Name": "Reformatting CopyNode for Input Tensor 0 to classifier.0.weight + /classifier.0/_weight_quantizer/QuantizeLinear + transpose_before_/classifier.0/Gemm + /classifier.0/Gemm + classifier.0.bias + (Unnamed Layer* 77) [Shuffle] + unsqueeze_node_after_classifier.0.bias + (Unnamed Layer* 77) [Shuffle]_(Unnamed Layer* 77) [Shuffle]_output + (Unnamed Layer* 78) [ElementWise] + /classifier.1/Relu",
  "LayerType": "NoOp",
  "Inputs": [
  {
    "Name": "/classifier.0/_input_quantizer/DequantizeLinear_output_0",
    "Location": "Device",
    "Dimensions": [1,8192,1,1],
    "Format/Datatype": "Row major Int8 format"
  }],
  "Outputs": [
  {
    "Name": "Reformatted Input Tensor 0 to classifier.0.weight + /classifier.0/_weight_quantizer/QuantizeLinear + transpose_before_/classifier.0/Gemm + /classifier.0/Gemm + classifier.0.bias + (Unnamed Layer* 77) [Shuffle] + unsqueeze_node_after_classifier.0.bias + (Unnamed Layer* 77) [Shuffle]_(Unnamed Layer* 77) [Shuffle]_output + (Unnamed Layer* 78) [ElementWise] + /classifier.1/Relu",
    "Location": "Device",
    "Dimensions": [1,8192,1,1],
    "Format/Datatype": "Thirty-two wide channel vectorized row major Int8 format"
  }],
  "TacticValue": "0x0000000000000000",
  "StreamId": 0,
  "Metadata": ""
},{
  "Name": "classifier.0.weight + /classifier.0/_weight_quantizer/QuantizeLinear + transpose_before_/classifier.0/Gemm + /classifier.0/Gemm + classifier.0.bias + (Unnamed Layer* 77) [Shuffle] + unsqueeze_node_after_classifier.0.bias + (Unnamed Layer* 77) [Shuffle]_(Unnamed Layer* 77) [Shuffle]_output + (Unnamed Layer* 78) [ElementWise] + /classifier.1/Relu",
  "LayerType": "CaskConvolution",
  "Inputs": [
  {
    "Name": "Reformatted Input Tensor 0 to classifier.0.weight + /classifier.0/_weight_quantizer/QuantizeLinear + transpose_before_/classifier.0/Gemm + /classifier.0/Gemm + classifier.0.bias + (Unnamed Layer* 77) [Shuffle] + unsqueeze_node_after_classifier.0.bias + (Unnamed Layer* 77) [Shuffle]_(Unnamed Layer* 77) [Shuffle]_output + (Unnamed Layer* 78) [ElementWise] + /classifier.1/Relu",
    "Location": "Device",
    "Dimensions": [1,8192,1,1],
    "Format/Datatype": "Thirty-two wide channel vectorized row major Int8 format"
  }],
  "Outputs": [
  {
    "Name": "/classifier.1/Relu_output_0",
    "Location": "Device",
    "Dimensions": [1,1024,1,1],
    "Format/Datatype": "Thirty-two wide channel vectorized row major Int8 format"
  }],
  "ParameterType": "Convolution",
  "Kernel": [1,1],
  "PaddingMode": "kEXPLICIT_ROUND_DOWN",
  "PrePadding": [0,0],
  "PostPadding": [0,0],
  "Stride": [1,1],
  "Dilation": [1,1],
  "OutMaps": 1024,
  "Groups": 1,
  "Weights": {"Type": "Int8", "Count": 8388608},
  "Bias": {"Type": "Float", "Count": 1024},
  "HasSparseWeights": 0,
  "HasDynamicFilter": 0,
  "HasDynamicBias": 0,
  "HasResidual": 0,
  "ConvXAsActInputIdx": -1,
  "BiasAsActInputIdx": -1,
  "ResAsActInputIdx": -1,
  "Activation": "RELU",
  "HasBias": 1,
  "HasReLU": 1,
  "TacticName": "sm80_xmma_fprop_implicit_gemm_interleaved_i8i8_i8i32_f32_nchw_vect_c_32kcrs_vect_c_32_nchw_vect_c_32_tilesize32x32x64_stage6_warpsize2x1x1_g1_tensor16x8x32_simple_t1r1s1",
  "TacticValue": "0x3912ca79eb9a8be1",
  "StreamId": 0,
  "Metadata": "[ONNX Layer: /classifier.0/Gemm]\u001e[ONNX Layer: /classifier.0/Gemm]\u001e[ONNX Layer: /classifier.1/Relu]"
},{
  "Name": "Reformatting CopyNode for Input Tensor 0 to classifier.2.weight + /classifier.2/_weight_quantizer/QuantizeLinear + transpose_before_/classifier.2/Gemm + /classifier.2/Gemm + classifier.2.bias + (Unnamed Layer* 91) [Shuffle] + unsqueeze_node_after_classifier.2.bias + (Unnamed Layer* 91) [Shuffle]_(Unnamed Layer* 91) [Shuffle]_output + (Unnamed Layer* 92) [ElementWise] + /classifier.3/Relu",
  "LayerType": "NoOp",
  "Inputs": [
  {
    "Name": "/classifier.1/Relu_output_0",
    "Location": "Device",
    "Dimensions": [1,1024,1,1],
    "Format/Datatype": "Thirty-two wide channel vectorized row major Int8 format"
  }],
  "Outputs": [
  {
    "Name": "Reformatted Input Tensor 0 to classifier.2.weight + /classifier.2/_weight_quantizer/QuantizeLinear + transpose_before_/classifier.2/Gemm + /classifier.2/Gemm + classifier.2.bias + (Unnamed Layer* 91) [Shuffle] + unsqueeze_node_after_classifier.2.bias + (Unnamed Layer* 91) [Shuffle]_(Unnamed Layer* 91) [Shuffle]_output + (Unnamed Layer* 92) [ElementWise] + /classifier.3/Relu",
    "Location": "Device",
    "Dimensions": [1,1024,1,1],
    "Format/Datatype": "Four wide channel vectorized row major Int8 format"
  }],
  "TacticValue": "0x0000000000000000",
  "StreamId": 0,
  "Metadata": ""
},{
  "Name": "classifier.2.weight + /classifier.2/_weight_quantizer/QuantizeLinear + transpose_before_/classifier.2/Gemm + /classifier.2/Gemm + classifier.2.bias + (Unnamed Layer* 91) [Shuffle] + unsqueeze_node_after_classifier.2.bias + (Unnamed Layer* 91) [Shuffle]_(Unnamed Layer* 91) [Shuffle]_output + (Unnamed Layer* 92) [ElementWise] + /classifier.3/Relu",
  "LayerType": "CaskConvolution",
  "Inputs": [
  {
    "Name": "Reformatted Input Tensor 0 to classifier.2.weight + /classifier.2/_weight_quantizer/QuantizeLinear + transpose_before_/classifier.2/Gemm + /classifier.2/Gemm + classifier.2.bias + (Unnamed Layer* 91) [Shuffle] + unsqueeze_node_after_classifier.2.bias + (Unnamed Layer* 91) [Shuffle]_(Unnamed Layer* 91) [Shuffle]_output + (Unnamed Layer* 92) [ElementWise] + /classifier.3/Relu",
    "Location": "Device",
    "Dimensions": [1,1024,1,1],
    "Format/Datatype": "Four wide channel vectorized row major Int8 format"
  }],
  "Outputs": [
  {
    "Name": "(Unnamed Layer* 92) [ElementWise] + /classifier.3/Relu_out_tensor",
    "Location": "Device",
    "Dimensions": [1,1024,1,1],
    "Format/Datatype": "Row major linear FP32"
  }],
  "ParameterType": "Convolution",
  "Kernel": [1,1],
  "PaddingMode": "kEXPLICIT_ROUND_DOWN",
  "PrePadding": [0,0],
  "PostPadding": [0,0],
  "Stride": [1,1],
  "Dilation": [1,1],
  "OutMaps": 1024,
  "Groups": 1,
  "Weights": {"Type": "Int8", "Count": 1048576},
  "Bias": {"Type": "Float", "Count": 1024},
  "HasSparseWeights": 0,
  "HasDynamicFilter": 0,
  "HasDynamicBias": 0,
  "HasResidual": 0,
  "ConvXAsActInputIdx": -1,
  "BiasAsActInputIdx": -1,
  "ResAsActInputIdx": -1,
  "Activation": "RELU",
  "HasBias": 1,
  "HasReLU": 1,
  "TacticName": "sm70_xmma_fprop_conv1x1_i8f32_f32_f32_nchw_vect_c_4kcrs_vect_c_4_nchw_simt_small_batch_bias_relu",
  "TacticValue": "0xc073b0053ce90eac",
  "StreamId": 0,
  "Metadata": "[ONNX Layer: /classifier.2/Gemm]\u001e[ONNX Layer: /classifier.2/Gemm]\u001e[ONNX Layer: /classifier.3/Relu]"
},{
  "Name": "/last_layer/Gemm",
  "LayerType": "CaskGemmConvolution",
  "Inputs": [
  {
    "Name": "(Unnamed Layer* 92) [ElementWise] + /classifier.3/Relu_out_tensor",
    "Location": "Device",
    "Dimensions": [1,1024,1,1],
    "Format/Datatype": "Row major linear FP32"
  }],
  "Outputs": [
  {
    "Name": "/last_layer/Gemm_out_tensor",
    "Location": "Device",
    "Dimensions": [1,10,1,1],
    "Format/Datatype": "Row major linear FP32"
  }],
  "ParameterType": "Convolution",
  "Kernel": [1,1],
  "PaddingMode": "kEXPLICIT_ROUND_DOWN",
  "PrePadding": [0,0],
  "PostPadding": [0,0],
  "Stride": [1,1],
  "Dilation": [1,1],
  "OutMaps": 10,
  "Groups": 1,
  "Weights": {"Type": "Float", "Count": 10240},
  "Bias": {"Type": "Float", "Count": 10},
  "HasSparseWeights": 0,
  "HasDynamicFilter": 0,
  "HasDynamicBias": 0,
  "HasResidual": 0,
  "ConvXAsActInputIdx": -1,
  "BiasAsActInputIdx": -1,
  "ResAsActInputIdx": -1,
  "Activation": "NONE",
  "TacticName": "sm50_xmma_cublas_gemvx_f32f32_f32_f32_tn_n_int32_unit_n_launch_param4x32x32_strided_unit_stride",
  "TacticValue": "0x00000000000204b1",
  "StreamId": 0,
  "Metadata": "[ONNX Layer: /last_layer/Gemm]"
},{
  "Name": "reshape_after_/last_layer/Gemm",
  "LayerType": "NoOp",
  "Inputs": [
  {
    "Name": "/last_layer/Gemm_out_tensor",
    "Location": "Device",
    "Dimensions": [1,10,1,1],
    "Format/Datatype": "Row major linear FP32"
  }],
  "Outputs": [
  {
    "Name": "output",
    "Location": "Device",
    "Dimensions": [1,10],
    "Format/Datatype": "Row major linear FP32"
  }],
  "TacticValue": "0x0000000000000000",
  "StreamId": 0,
  "Metadata": "[ONNX Layer: /last_layer/Gemm]"
}],
"Bindings": ["input"
,"output"
]}
